Results/saved_models/CNN_2.pth (torch, 6087 bytes, 6 tensors)

weight f4 [3, 3, 5]
-0.08020718 -0.21553539 -0.22489879 0.03825628 -0.12634559 -0.1518765 0.12048525 0.05062018
0.24988627 0.2291313 0.048969988 -0.23167278 0.0051867496 -0.21954903 0.2383822 0.1789361
-0.2469549 0.2310399 0.18896647 0.20826297 -0.068815514 0.10893932 0.11114992 0.16003336
-0.08800256 -0.05241759 -0.24196942 0.073666915 -0.11802878 -0.248732 0.30461934 0.28826585
0.25443769 0.041361295 0.19652118 0.27576408 0.1680215 -0.075801045 -0.010654201 0.19295485
-0.010970691 -0.123589516 0.10524753 0.19897558 0.008331821
00000000: a943 a4bd 4fb5 5cbe de4b 66be 9eb2 1c3d
00000010: bd60 01be 8385 1bbe f9c0 f63d 1b57 4f3d
00000020: 30e2 7f3e 65a1 6a3e c194 483d a13b 6dbe
00000030: 9cf5 a93b 76d1 60be 771a 743e 063b 373e
00000040: bfe1 7cbe b995 6c3e 6d80 413e e342 553e
00000050: 26ef 8cbd 941b df3d 92a2 e33d c9df 233e
00000060: b03a b4bd d4b3 56bd d5c6 77be aede 963d
00000070: 13b9 f1bd 9ab3 7ebe 11f7 9b3e 9597 933e
00000080: a845 823e 766a 293d d93c 493e f330 8d3e
00000090: d40d 2c3e 943d 9bbd f58e 2ebc f595 453e
000000a0: 6abe 33bc 801c fdbd 048c d73d 41c0 4b3e
000000b0: 3182 083c

bias f4 [3]
0.07057771 -0.032054354 0.25584108
00000000: 0c8b 903d 6d4b 03bd 9afd 823e

weight f4 [7, 7, 7]
0.033031687 0.03813107 0.07891548 -0.023147447 0.08554861 -0.08463981 0.01687033 -0.08771969
0.10471021 0.037919983 -0.0076093166 0.06522492 0.11674347 0.051030926 0.024105141 0.0640665
-0.06424293 0.038826622 0.025698204 0.13700007 0.079030655 -0.12183631 -0.08662292 0.035597205
0.038965225 0.021926131 -0.13860638 0.043160167 0.10457812 0.06850214 0.003871305 0.06689935
-0.1105297 -0.12577467 -0.12885173 -0.10199965 -0.012675813 0.061982498 0.038900018 -0.032359637
-0.024295432 0.05249126 0.03436988 0.019861307 0.09236837 -0.046159133 0.09600471 0.12605178
0.13463035 0.09321954 0.111751 0.13629265 -0.08169603 -0.053143468 0.081236504 -0.14032777
0.055315632 -0.09987713 -0.05191001 0.104500435 -0.022908978 -0.13361461 0.00055640086 0.14064577
-0.07762758 -0.023467917 0.09694558 0.05860983 -0.09191673 0.084356435 -0.12661281 -0.10200196
0.101729825 0.009026885 -0.133274 0.13471013 -0.11631205 -0.06391786 -0.0840364 0.09168173
-0.1308308 -0.11221803 -0.092584155 0.05871429 0.1384186 0.11011078 0.08920508 0.051260356
-0.06803637 -0.043274883 -0.0674009 0.088435896 -0.009339503 -0.09781674 0.063967675 0.05712278
0.12077652 0.10905358 0.013422524 0.025806088 0.11573865 -0.050685935 0.061657757 0.012334313
0.07994373 -0.08018664 0.014409543 -0.076708116 -0.14212647 0.030205064 0.14175665 -0.086192735
0.06392936 -0.017124994 0.13522898 0.0065538543 -0.0695519 0.008869563 -0.12283845 0.048953008
0.14057124 0.103353865 -0.116587624 0.06633876 0.05974109 0.0917758 -0.031304598 -0.06925602
0.022472076 -0.03708116 0.13373075 0.12558812 0.10268353 -0.06834809 -0.10464626 0.11850129
-0.09540858 0.09819408 0.05607316 -0.03021833 0.051961016 0.029033372 0.09357371 -0.0013082029
-0.104348235 -0.07232895 0.075112775 -0.60262585 0.019707493 -0.5955342 -0.072165646 -0.10815093
-0.49131516 -0.34536916 -0.23730665 -0.6724852 -0.15857585 -0.0011168321 -0.48641437 -0.57244706
-0.8281412 -0.6871398 -0.1034957 -0.17304766 -0.5566843 -0.595689 -0.91413593 -0.60956836
0.0027090476 -0.13434878 -0.58272284 -0.5732464 -0.93269026 -0.71940017 0.17720251 -0.08433534
-0.47320834 -0.4101203 -0.8912751 -0.7332048 0.09476194 0.06470103 -0.36954138 -0.5140707
-0.8105057 -0.50362396 0.074499525 0.1333663 0.47945058 -0.4218085 -0.9946658 -0.6593814
-0.029507823 0.13797292 0.31168988 -0.1116088 0.11701194 0.13814333 0.076827854 0.09125475
0.0744993 0.07221353 -0.029385926 0.04748837 -0.12311796 -0.0063249045 0.040154032 -0.01256437
0.09542801 -0.07754132 0.044805683 0.11621423 -0.10641107 -0.042083897 0.1377961 -0.10338379
0.060403947 -0.10001622 -0.094563946 -0.101527676 0.025413668 0.017586794 -0.13957223 0.019779785
0.030878 -0.105701454 -0.09596117 0.07768514 0.03037136 -0.12552425 -0.07119155 -0.06594737
0.1170163 -0.015730655 -0.03024619 -0.08611513 -0.011646544 -0.032213435 0.05869091 0.058066763
0.10489723 0.007813028 0.038735714 -0.0848291 -0.06061498 0.00029994763 0.045288615 -0.06065059
0.021707911 0.10040493 -0.010304621 -0.0925236 -0.10747389 0.100066714 0.09121265 0.13780527
00000000: 3c4c 073d 532f 1c3d 709e a13d b79f bdbc
00000010: 1c34 af3d a357 adbd a533 8a3c 61a6 b3bd
00000020: 4e72 d63d fc51 1b3d 9357 f9bb a594 853d
00000030: 3317 ef3d ce05 513d 2578 c53c 4c35 833d
00000040: cc91 83bd aa08 1f3d 0a85 d23c bf49 0c3e
00000050: d3da a13d 5185 f9bd 5c67 b1bd 60ce 113d
00000060: 009a 1f3d 6e9e b33c d5ee 0dbe b7c8 303d
00000070: 0e2d d63d da4a 8c3d b8b5 7d3b 8702 893d
00000080: 655d e2bd 13cb 00be b5f1 03be 31e5 d0bd
00000090: 37ae 4fbc 5ce1 7d3d a055 1f3d 8a8b 04bd
000000a0: 3707 c7bc 1301 573d 6ec7 0c3d 2eb4 a23c
000000b0: a12b bd3d 5c11 3dbd 1e9e c43d b813 013e
000000c0: 8adc 093e e3e9 be3d b5dd e43d 4d90 0b3e
000000d0: 4050 a7bd f7ac 59bd 535f a63d 15b2 0fbe
000000e0: a592 623d 618c ccbd 979f 54bd 5304 d63d
000000f0: 9cab bbbc 45d2 08be 6edb 113a 7205 103e
00000100: 35fb 9ebd ca3f c0bc 678b c63d dc10 703d
00000110: d73e bcbd 11c3 ac3d caa6 01be 67e6 d0bd
00000120: ba57 d03d 80e5 133c fb78 08be 74f1 093e
00000130: 0335 eebd 5ee7 82bd 471b acbd a1c3 bb3d
00000140: 82f8 05be 91d2 e5bd c39c bdbd 657e 703d
00000150: 9bbd 0d3e c381 e13d 27b1 b63d 61f6 513d
00000160: a756 8bbd 0141 31bd 7c09 8abd e11d b53d
00000170: b704 19bc 2554 c8bd 7c01 833d 93f9 693d
00000180: ae59 f73d 7c57 df3d 25ea 5b3c 4a67 d33c
00000190: 6308 ed3d 0e9c 4fbd d88c 7c3d dc15 4a3c
000001a0: 8ab9 a33d e538 a4bd 0116 6c3c 2519 9dbd
000001b0: 9a89 11be 9c70 f73c a828 113e d185 b0bd
000001c0: 65ed 823d b749 8cbc 7779 0a3e b7c1 d63b
000001d0: 3a71 8ebd a551 113c ba92 fbbd f382 483d
000001e0: e8f1 0f3e 31ab d33d 7ec5 eebd 9edc 873d
000001f0: 13b3 743d f3f4 bb3d 4039 00bd 1ad6 8dbd
00000200: 5c17 b83c 6ae2 17bd b7f0 083e 2c9a 003e
00000210: be4b d23d 15fa 8bbd c750 d6bd ceb0 f23d
00000220: 9365 c3bd fa19 c93d f8ac 653d 6e8c f7bc
00000230: 13d5 543d 65d7 ed3c 93a3 bf3d 0178 abba
00000240: 87b4 d5bd 3321 94bd bad4 993d b045 1abf
00000250: 9c71 a13c ee74 18bf 95cb 93bd 3c7e ddbd
00000260: a98d fbbe 3ad4 b0be 8400 73be fd27 2cbf
00000270: b561 22be ab62 92ba 4e0b f9be e48b 12bf
00000280: 1001 54bf 65e8 2fbf 8ef5 d3bd 6833 31be
00000290: dd82 0ebf 137f 18bf d004 6abf ac0c 1cbf
000002a0: 478a 313b ba92 09be 532d 15bf 47c0 12bf
000002b0: cac4 6ebf 9c2a 38bf 9374 353e 02b8 acbd
000002c0: 5d48 f2be 4afb d1be 9b2a 64bf 4fb3 3bbf
000002d0: 8c12 c23d f981 843d 8734 bdbe 239a 03bf
000002e0: 4d7d 4fbf 80ed 00bf 3593 983d 2d91 083e
000002f0: 8c7a f53e 49f7 d7be 6ba2 7ebf 38cd 28bf
00000300: 64ba f1bc c648 0d3e d195 9f3e 2893 e4bd
00000310: f5a3 ef3d 7275 0d3e ec57 9d3d c5e3 ba3d
00000320: 1793 983d b0e4 933d c1ba f0bc 2a83 423d
00000330: 4525 fcbd 2541 cfbb 8e78 243d cada 4dbc
00000340: c36f c33d fccd 9ebd 2a86 373d ba01 ee3d
00000350: 0cee d9bd 2a60 2cbd 6c1a 0d3e e1ba d3bd
00000360: 216a 773d 4ed5 ccbd beaa c1bd beed cfbd
00000370: 5330 d03c 2e12 903c 06ec 0ebe 3709 a23c
00000380: dcf3 fc3c 017a d8bd 4a87 c4bd 6319 9f3d
00000390: 5ccd f83c 6e89 00be e0cc 91bd 6a0f 87bd
000003a0: 3ea6 ef3d 93dd 80bc dcc6 f7bc 215d b0bd
000003b0: 25d1 3ebc 3cf2 03bd e165 703d 6ad7 6d3d
000003c0: 5cd4 d63d 3702 003c 57a9 1e3d e1ba adbd
000003d0: 6a47 78bd 4a42 9d39 8e80 393d c16c 78bd
000003e0: cad4 b13c 1aa1 cd3d b7d4 28bc 037d bdbd
000003f0: 451b dcbd c7ef cc3d b3cd ba3d d31c 0d3e

bias f4 [7]
-0.021249993 0.13275924 -0.008160796 -0.5977296 -0.057149056 -0.07694931 -0.13081472
00000000: 7714 aebc 0af2 073e dcb4 05bc cf04 19bf
00000010: 2115 6abd 9a97 9dbd 4bf4 05be

weight f4 [3, 3, 3]
0.027431171 -0.04974262 -0.25251848 -0.14729917 -0.15259156 -0.19111225 0.11174624 0.0032350621
-0.31086287 6.5417805 11.776074 2.3631055 11.702495 1.975005 -8.489314 2.121494
-8.219899 -0.79923797 -0.24284439 0.20432453 -0.08283858 -0.08946566 0.13377695 0.28144297
0.13153093 -0.020025373 -0.15955353
00000000: 56b7 e03c ebbe 4bbd 1a4a 81be 98d5 16be
00000010: f640 1cbe eeb2 43be 36db e43d 5603 543b
00000020: 6b29 9fbe 4456 d140 cd6a 3c41 1f3d 1740
00000030: 6b3d 3b41 f7cc fc3f 3bd4 07c1 8fc6 0740
00000040: b584 03c1 dc9a 4cbf 33ac 78be 733a 513e
00000050: 46a7 a9bd c639 b7bd d3fc 083e 4b19 903e
00000060: 0bb0 063e 400c a4bc 0062 23be

bias f4 [3]
-0.04005305 13.240345 0.14891526
00000000: ab0e 24bd 74d8 5341 3e7d 183e
