Results/saved_models/GRU_2.pth (torch, 3527 bytes, 5 tensors)

weight_ih f4 [6, 1]
00000000: 1e9b 35be 2813 cdbd 36af 51be 7cce d4be
00000010: 9fb3 80be 46bf aebe
-0.17734954 -0.100134194 -0.20476994 -0.41563785 -0.2513704 -0.34130305

weight_hh f4 [6, 2]
00000000: a12a 2c3f ebec 06bf 0454 0d3e 8f96 1c3e
00000010: a63b 66be 2a4c cb3e be48 643e 6a57 843c
00000020: 1f10 bb3d d23c dd3d 2a3e 0ebf 6c58 05bf
0.67252547 -0.5270526 0.1380158 0.15291809 -0.22483692 0.39706546 0.22293374 0.016154964
0.09133934 0.10802616 -0.55563605 -0.52088046

bias_ih f4 [6]
00000000: 0e1f 6c3e 3176 aa3e 2cd8 863e 8d27 b13e
00000010: 1e22 0d3f 0fb9 7f3e
0.23058721 0.33293298 0.263368 0.34600487 0.55130184 0.24972938

bias_hh f4 [6]
00000000: 6816 92be e3a4 043f 5392 d2be 942d 2a3f
00000010: bba2 8d3e fc67 afbd
-0.2853272 0.518141 -0.41127262 0.66475797 0.27663216 -0.08564755

weight f4 [1, 2]
00000000: cfc8 253f bbdc 0dbf
0.64759535 -0.5541493
