Results/saved_models/LSTM_2.pth (torch, 3535 bytes, 5 tensors)

weight_ih f4 [8, 1]
0	0x3da0409c	0.07824823
1	0xbf17a4c8	-0.5923581
2	0x3f10380d	0.56335527
3	0xbf2ceaca	-0.6754576
4	0xbf21e1aa	-0.6323496
5	0x3f0635db	0.52425927
6	0xbe83ab0a	-0.2571643
7	0x3ef7029c	0.48244178

weight_hh f4 [8, 2]
0	0xbf062454	-0.5239918
1	0x3f1e903d	0.6193884
2	0xbf20d5b3	-0.6282608
3	0xbecd7bbd	-0.40133467
4	0x3f0a77c3	0.5408899
5	0x3f31ba5c	0.69424987
6	0xbe91ab88	-0.2845118
7	0x3edd8351	0.4326425
8	0xbf2086b1	-0.6270552
9	0xbe387340	-0.18012714
10	0x3f154187	0.5830311
11	0xbe0198e6	-0.12655982
12	0xbe8ce251	-0.27516416
13	0xbf2e5809	-0.6810308
14	0x3f24ad28	0.64326715
15	0x3ea65bbf	0.32491872

bias_ih f4 [8]
0	0x3dc43a13	0.09581389
1	0x3e7d5b5d	0.24741884
2	0xbe3e7a64	-0.18601376
3	0xbed5c8ac	-0.41754663
4	0xbee007a7	-0.43755838
5	0xbf0b4f94	-0.544183
6	0x3ed1c7ce	0.4097275
7	0xbf17fbfd	-0.5936888

bias_hh f4 [8]
0	0xbe8fabae	-0.2806067
1	0xbef8bffc	-0.48583972
2	0x3f2162f3	0.6304161
3	0xbe709b28	-0.23496687
4	0x3e15f019	0.14642371
5	0x3ea45463	0.32095632
6	0x3f19ed6a	0.6012789
7	0xbeefc36b	-0.4682878

weight f4 [1, 2]
0	0xbe1acd63	-0.15117411
1	0x3f2fce97	0.68674606
